----------------------------------------------------------------
        Layer (type)               Output Shape         Param #
================================================================
            Conv2d-1           [-1, 24, 32, 32]             648
       BatchNorm2d-2           [-1, 24, 32, 32]              48
              ReLU-3           [-1, 24, 32, 32]               0
           Dropout-4           [-1, 24, 32, 32]               0
            Conv2d-5           [-1, 24, 32, 32]             240
            Conv2d-6           [-1, 48, 32, 32]           1,200
DepthwiseSeparableConv-7           [-1, 48, 32, 32]               0
       BatchNorm2d-8           [-1, 48, 32, 32]              96
              ReLU-9           [-1, 48, 32, 32]               0
          Dropout-10           [-1, 48, 32, 32]               0
           Conv2d-11           [-1, 64, 30, 30]          27,712
      BatchNorm2d-12           [-1, 64, 30, 30]             128
             ReLU-13           [-1, 64, 30, 30]               0
          Dropout-14           [-1, 64, 30, 30]               0
           Conv2d-15           [-1, 96, 15, 15]          55,392
      BatchNorm2d-16           [-1, 96, 15, 15]             192
             ReLU-17           [-1, 96, 15, 15]               0
          Dropout-18           [-1, 96, 15, 15]               0
           Conv2d-19            [-1, 128, 8, 8]         110,720
      BatchNorm2d-20            [-1, 128, 8, 8]             256
             ReLU-21            [-1, 128, 8, 8]               0
          Dropout-22            [-1, 128, 8, 8]               0
AdaptiveAvgPool2d-23            [-1, 128, 1, 1]               0
           Conv2d-24             [-1, 10, 1, 1]           1,290
================================================================
Total params: 197,922
Trainable params: 197,922
Non-trainable params: 0
----------------------------------------------------------------
Input size (MB): 0.01
Forward/backward pass size (MB): 5.48
Params size (MB): 0.76
Estimated Total Size (MB): 6.25
----------------------------------------------------------------
Files already downloaded and verified
…
